weight.npy (npy, 416 bytes, 1 tensors)

array f8 [42]
000000 5d b1 18 7d c5 48 03 40 9a e6 53 b5 4e 88 d2 bf
       2.4105329297218945 -0.2895695467737852
000010 77 ac ba 92 f9 0c 10 40 f2 53 22 66 25 65 07 c0
       4.012670796054514 -2.9243877391077087
000020 93 33 a5 ec 9e d4 05 c0 48 b2 0f 7a 2c 03 fa bf
       -2.7288187492290006 -1.6257748382587511
000030 9c f7 ed 67 b8 6e 12 c0 ff f3 e6 94 aa 46 06 c0
       -4.6081253279679935 -2.7845050461751266
000040 f8 8e fd 05 f9 b0 f6 bf 53 61 97 33 83 8d fc 3f
       -1.418206237220998 1.7845489516531259
000050 05 38 21 4c ad 77 ca bf 08 f6 f7 93 97 02 f8 3f
       -0.2067772504546498 1.5006328372977595
000060 c3 b8 26 07 50 d3 1e c0 1b 1b d7 c5 ec 05 d7 3f
       -7.706359969843279 0.3597366268190158
000070 14 6c 61 34 25 91 e4 bf 83 68 24 c0 40 80 f8 bf
       -0.6427179358537409 -1.531311750941797
000080 09 19 28 d8 28 b6 11 40 92 d2 40 9b cd 29 0a c0
       4.427890183875442 -3.2704116944463033
000090 8d 4d 42 45 38 06 09 c0 fd 3a e8 b3 a3 45 ea 3f
       -3.128037015043168 0.8210009111224675
0000a0 7d e5 3a 75 7a 1e 0b 40 06 10 10 94 e3 f2 00 40
       3.389882007465245 2.1185981337930597
0000b0 aa a2 e2 6a 38 8c 16 c0 36 76 96 bb 67 46 07 c0
       -5.636933965761878 -2.909377542046765
0000c0 9f 2d b0 46 8b b2 f5 3f c1 2e 1b 02 6b f5 d6 bf
       1.3560898553140317 -0.35872912603074886
0000d0 ab 9f 42 78 f1 c5 12 c0 7d 5c 7a 0c 94 c3 1a 40
       -4.693303946558369 6.690994448631611
0000e0 aa 79 9c 30 68 ae 1d 40 f2 8c 3c 9c 2f 4b 1a c0
       7.420319327879421 -6.5734238063771375
0000f0 a6 41 dc ae 33 b1 02 c0 5d 60 ac bf a9 93 d9 bf
       -2.3365243588416034 -0.3996376392183317
000100 83 4a f2 94 72 5e f6 3f 36 9c 0a 0e f5 67 a9 bf
       1.3980584924908335 -0.0496212558403432
000110 34 e7 6e be 54 50 f0 bf 37 d7 06 fc e8 b9 b5 3f
       -1.0196120680615879 0.08486801293369416
000120 c4 cf 43 03 53 49 cc bf 78 0e 25 d5 61 d4 f7 3f
       -0.22098767909449013 1.4893511129347683
000130 25 f6 71 fe ff f6 e6 3f 31 a8 9d f1 a7 18 e9 3f
       0.7176513642913888 0.7842597693500065
000140 14 85 75 d4 96 27 1d c0 3b 30 b7 28 f4 08 13 40
       -7.288661307976572 4.7587438928422285
